data.pth (torch, 4586 bytes, 6 tensors)

l1.weight f4 [8, 35]
0	0xbe416b66	-0.18888626
1	0x3e8ffa0a	0.28120452
2	0x3e7bd10f	0.24591468
3	0xbedce906	-0.43146533
4	0xbe52f991	-0.20603015
5	0xbec1d2a5	-0.37856022
6	0xbd4ce9f3	-0.0500278
7	0x3f2390dc	0.6389291
8	0xbe71dece	-0.2362015
9	0xbe81d40a	-0.25357085
10	0x3f160b8e	0.5861138
11	0x3f7560f1	0.95851046
12	0xbc8c3190	-0.017113477
13	0x3ecf71e8	0.4051659
14	0x3f055d79	0.5209575
15	0x3eff703b	0.49890313
16	0xbe618dbe	-0.22026727
17	0xbe5ea95b	-0.21744291
18	0xbd0f4280	-0.03497553
19	0x3efbac78	0.4915502
20	0xbee2603f	-0.44214055
21	0x3d5d0f41	0.053969625
22	0xbe89e655	-0.26933542
23	0x3ec96c38	0.39340377
24	0xbee25bf4	-0.4421078
25	0x3f5ef994	0.87099576
26	0xbe85a1db	-0.26100048
27	0x3d8e0e26	0.06936292
28	0x3e1039a3	0.14084487
29	0xbec868dd	-0.39142504
30	0x3ee36b26	0.44417685
31	0x3f941719	1.1569549
32	0x3f2c9289	0.67411095
33	0x3e7db8fc	0.24777597
34	0xbeddd452	-0.4332605
35	0xbe55f4fc	-0.20894235
36	0xbe5d0cdb	-0.21586935
37	0x3e22da8d	0.15903683
38	0x3f10975f	0.56480974
39	0x3f075382	0.528618
40	0x3e88197d	0.26581946
41	0xbde74fff	-0.11294555
42	0x3f2edae8	0.68302774
43	0x3f2082f2	0.62699807
44	0xbe4d59ad	-0.2005374
45	0x3f32093b	0.69545335
46	0xbf701a06	-0.9378971
47	0xbdcfd93e	-0.101488575
48	0xbed1b027	-0.40954706
49	0xbed1b2ef	-0.40956828
50	0xbed1a4ec	-0.40946138
51	0xbee33f23	-0.44384107
52	0xbe4aa9bc	-0.19791311
53	0xbe27ffeb	-0.16406219
54	0x3f594723	0.8487417
55	0xbed1bb7f	-0.4096336
56	0x3ecf6353	0.40505466
57	0xbe8154a6	-0.25259894
58	0x3f09344a	0.5359541
59	0xbed1bc38	-0.40963912
60	0xbd97e892	-0.07417406
61	0x3f25a341	0.6470223
62	0xbef37703	-0.47551736
63	0xbcf02785	-0.02931572
64	0x3f402840	0.75061417
65	0x3ecbb626	0.39787406
66	0x3e97d24a	0.29652625
67	0x3e6f1f05	0.23351677
68	0x3d9262b2	0.07147731
69	0x3f10534a	0.5637709
70	0x3f334a66	0.700354
71	0xbdf9d013	-0.1219789
72	0x3e8798fb	0.26483902
73	0xbf0a7df1	-0.5409842
74	0xbf84e93c	-1.0383677
75	0xbf49d4a7	-0.78840107
76	0x3e3b3b2c	0.18284291
77	0x3efa4ea1	0.48888114
78	0x3ebf9a75	0.3742253
79	0x3f30bb09	0.69035393
80	0x3e8633ac	0.26211298
81	0x3d041937	0.03225061
82	0x3ede3acb	0.4340423
83	0x3e3bfdd8	0.18358552
84	0x3e23998b	0.1597654
85	0x3e3d54bb	0.18489353
86	0x3f521fcc	0.8207977
87	0x3e8dabcb	0.2767013
88	0x3db117d5	0.08647124
89	0x3efcd534	0.4938141
90	0x3f788576	0.97078645
91	0x3dd1b8fc	0.10240361
92	0x3efc0deb	0.4922937
93	0x3f31369d	0.6922396
94	0x3f77b857	0.96765655
95	0xbeaa1e8f	-0.3322644
96	0xbf1bdb23	-0.6088125
97	0xbe3ae946	-0.18253049
98	0x3d8c12a4	0.06839493
99	0xbef31797	-0.47478935
100	0x3e0f2748	0.13979828
101	0xbf2c4751	-0.6729632
102	0xbe9d0c99	-0.30673674
103	0x3e78d9b7	0.24301802
104	0xbf0d53d7	-0.55206054
105	0xbe921cd2	-0.28537613
106	0x3f2146fd	0.62998945
107	0x3e93a905	0.2883989
108	0xbf1d4b91	-0.6144343
109	0xbeb08c7c	-0.3448218
110	0xbf358204	-0.70901513
111	0x3e83d420	0.25747776
112	0x3ed9a716	0.4251029
113	0x3f01abb8	0.50652647
114	0xbc326837	-0.010889105
115	0x3e9c367c	0.30510318
116	0x3fa71b3e	1.3055189
117	0x3e7af009	0.24505629
118	0x3f154817	0.58313125
119	0x3f2c6d7b	0.67354554
120	0x3f0d9022	0.55298054
121	0x3f5b4a5a	0.85660326
122	0x3ea5812f	0.32325122
123	0x3f0479b5	0.5174821
124	0x3e7dbeaf	0.24779771
125	0xbecf05ee	-0.40434211
126	0x3eace578	0.3376882
127	0x3ecf40c3	0.40479097
128	0x3eba6268	0.36403203
129	0xbed02beb	-0.40658507
130	0x3ee00d83	0.4376031
131	0xbf0d4e85	-0.55197936
132	0xb93e4fca	-0.00018149536
133	0x3f005718	0.50132895
134	0xbf181b59	-0.5941673
135	0x3e0677b1	0.13131596
136	0x3f271ee6	0.6528152
137	0x3d970201	0.07373429
138	0x3da6b186	0.08139329
139	0xbf1af7d5	-0.6053441
140	0xbd52fd71	-0.05151123
141	0x3ef02b2d	0.4690794
142	0x3d947322	0.07248522
143	0xbe0185e9	-0.12648739
144	0xb865ea1a	-5.481588e-05
145	0xbeef9881	-0.4679604
146	0xbbfb4092	-0.0076676095
147	0x3eb7ad9b	0.35874638
148	0xbf0cf60d	-0.55062944
149	0x3c94d53c	0.018168084
150	0x3f16cf37	0.58909935
151	0x3f3f62df	0.7476024
152	0x3da9cddd	0.082912184
153	0x3f3c3b25	0.7352775
154	0x3f4085ff	0.7520446
155	0x3f52fbf0	0.82415676
156	0xbed087f2	-0.40728718
157	0xbdc4d49c	-0.096108645
158	0x3f0125e9	0.5044847
159	0x3f08ea76	0.5348276
160	0xbde1c4e6	-0.110238835
161	0x3e8b88b0	0.27252722
162	0xbe98839b	-0.29787907
163	0x3e70a157	0.23499046
164	0xbde304f6	-0.110849306
165	0x3f612ca0	0.8795872
166	0xbe64a117	-0.22327076
167	0x3d5b090e	0.053475432
168	0x3ede085f	0.43365762
169	0xbe86b522	-0.26310068
170	0x3ea9696c	0.33088243
171	0x3f76fe8c	0.9648216
172	0x3ef414fa	0.47672254
173	0x3e84ef7e	0.25963968
174	0xbe130416	-0.14357027
175	0xbe068a51	-0.13138701
176	0xbe8d413f	-0.2758884
177	0x3dd591a8	0.10428172
178	0x3f3711b4	0.7151139
179	0xbd7456bd	-0.059653033
180	0x3f4763f6	0.77886903
181	0xbbaeb940	-0.005332142
182	0x3f5a8e74	0.85373616
183	0xbeb847fb	-0.35992417
184	0xbe6a0e79	-0.22857083
185	0x3f417863	0.7557432
186	0xbe9a0ec8	-0.30089402
187	0xbd48a609	-0.04898647
188	0xbeae23bd	-0.3401164
189	0xbeb597f1	-0.35467485
190	0xbeb855b3	-0.36002883
191	0xbeb85570	-0.36002684
192	0xbe2aa99a	-0.1666626
193	0x3e3685f6	0.1782454
194	0x3f545221	0.8293782
195	0xbeb8493a	-0.35993367
196	0x3ebbeffa	0.36706525
197	0xbbd27563	-0.006422685
198	0x3ed54cde	0.41660208
199	0xbeb852c7	-0.36000654
200	0x3f0cd417	0.55011123
201	0x3f42f326	0.76152265
202	0x3ee7a049	0.45239475
203	0xbe67d717	-0.22640644
204	0x3ee15875	0.440128
205	0x3f137834	0.5760529
206	0x3f871864	1.0554318
207	0x3f2c2f69	0.6725984
208	0x3ed5a2be	0.41725725
209	0x3f4a3682	0.7898942
210	0x3f6271df	0.88455003
211	0x3f08d6ec	0.53452945
212	0xbd755e24	-0.059904233
213	0x3f73e429	0.9527002
214	0x3f9b2064	1.211926
215	0x3f85cbbf	1.0452803
216	0xbd2dec8c	-0.042461917
217	0xbefc3b08	-0.49263787
218	0xbec24675	-0.3794438
219	0x3f448539	0.7676578
220	0xbe0fafe8	-0.14031947
221	0x3e9976ad	0.29973355
222	0x3f3c7fa0	0.7363224
223	0x3f31c638	0.6944308
224	0x3f5b67b5	0.8570512
225	0x3f56d036	0.83911455
226	0xbf3815e6	-0.71908414
227	0xbe07bdb4	-0.1325596
228	0x3f1d8cdc	0.6154306
229	0xbeecacee	-0.46225685
230	0x3f9aa72f	1.208227
231	0xbb126384	-0.0022337148
232	0xbeda3b6e	-0.42623466
233	0xbefa9679	-0.48942927
234	0x3f99dc26	1.2020309
235	0xbeb80b11	-0.35945943
236	0x3f88a080	1.0673981
237	0x3ee5e9e5	0.4490501
238	0x3f0422a9	0.5161539
239	0x3f82241b	1.0167269
240	0xbe1ab836	-0.15109333
241	0xbf41e84a	-0.7574507
242	0xbf102b6e	-0.5631627
243	0x3ded4adc	0.11586544
244	0x3f7a8d48	0.9787183
245	0xbe5680a9	-0.20947517
246	0x3dba4158	0.090944946
247	0x3de68303	0.11255457
248	0x3eb5a6d7	0.3547885
249	0x3f2b2f43	0.6686899
250	0x3f45f3c7	0.773251
251	0x3d2189ec	0.039438173
252	0xbe900a6b	-0.28132948
253	0xbeed7bb0	-0.4638343
254	0xbea14bf7	-0.3150327
255	0xbd3b7882	-0.045769222

l1.bias f4 [8]
0	0x3ee25052	0.44201905
1	0x3ed1a570	0.4094653
2	0x3f2c3f51	0.67284113
3	0x3f4b0cbb	0.793163
4	0x3f0cfa3d	0.55069333
5	0x3eb84e2a	0.35997134
6	0x3f7b65ec	0.98202395
7	0x3f063c1e	0.5243548

l2.weight f4 [8, 8]
0	0xbdcb4228	-0.09924728
1	0x3dce7e38	0.10082668
2	0xbe43c075	-0.19116385
3	0xbd098558	-0.033574432
4	0xbd88b98a	-0.06676014
5	0x3dce6d65	0.10079459
6	0x3de0125b	0.10941001
7	0xbe95b6dc	-0.29241073
8	0xbe1aeb3c	-0.15128797
9	0xbf9e540d	-1.23694
10	0x3f992d68	1.1966982
11	0x3f508819	0.8145767
12	0x3ef9c965	0.48786464
13	0xbf8f53fa	-1.1197503
14	0x3fa21961	1.2663995
15	0xbe318ea2	-0.17339566
16	0x3fd43189	1.6577617
17	0xbf439c7f	-0.7641067
18	0x3de72f2c	0.11288294
19	0x3fd222ba	1.6416848
20	0x3fdda012	1.7314475
21	0xbd000d78	-0.031262845
22	0xbf4e8f23	-0.8068716
23	0x3f9fdbe8	1.2488985
24	0x3ec73137	0.38904735
25	0x3f9caf3d	1.2240978
26	0xbf6ee697	-0.933206
27	0xbe43df4a	-0.19128147
28	0x3f3c088f	0.7345056
29	0x3fee10ad	1.8598839
30	0x3f0c0c00	0.5470581
31	0x3fa928cd	1.3215576
32	0x3f314acb	0.6925475
33	0x3f65bd63	0.89742106
34	0x3f8a11a3	1.0786632
35	0x3f472cf1	0.7780295
36	0x3f109a36	0.5648531
37	0x3f42e379	0.76128346
38	0xbf94d37a	-1.1627038
39	0xbfac4cc5	-1.3460928
40	0xbe733ffa	-0.23754874
41	0xbeb43ab6	-0.35201043
42	0x3dad6d0a	0.08468063
43	0x3db8be02	0.09020616
44	0x3e014bb4	0.12626535
45	0xbd7d3c58	-0.061825126
46	0xbd874f48	-0.066069186
47	0x3d42f248	0.04759434
48	0xbdfef399	-0.12448806
49	0x3effb8b3	0.49945602
50	0x3ed19992	0.40937477
51	0x3f83d341	1.0298845
52	0xbf5ef708	-0.8709569
53	0xbfbdbc77	-1.482314
54	0xbef9145e	-0.4864835
55	0xbd778e95	-0.06043871
56	0x3ea0522d	0.31312695
57	0x3f1ae157	0.6050009
58	0xbf925491	-1.1432058
59	0xbe1321e4	-0.14368397
60	0x3e8fbe4a	0.28074867
61	0x3f9b0361	1.2110406
62	0x3f1a05f6	0.60165346
63	0x3f9cd3bc	1.2252116

l2.bias f4 [8]
0	0xbe3c906d	-0.18414469
1	0x3f452e19	0.77023464
2	0x3e39716b	0.18109672
3	0x3e704130	0.23462367
4	0x3e81d593	0.25358257
5	0xbec68c46	-0.38778895
6	0x3ec075d3	0.37589893
7	0x3efc77e3	0.49310216

l3.weight f4 [6, 8]
0	0xbe92a7ef	-0.28643748
1	0xbf2f206c	-0.68408847
2	0xbf84c6d4	-1.0373178
3	0x3f49a6eb	0.7877032
4	0xbf8bc54a	-1.0919583
5	0xbd8a331b	-0.06748029
6	0xbf047984	-0.5174792
7	0x3f3c085e	0.7345027
8	0x3e1b42c9	0.15162195
9	0x3c8c9e99	0.017165469
10	0xbdae5542	-0.085123554
11	0xbf6034cd	-0.8758057
12	0x3e899e26	0.2687847
13	0xbe1f3a54	-0.15549594
14	0x3fc0f3ce	1.5074403
15	0xbf852330	-1.0401363
16	0xbdc6964f	-0.09696638
17	0x3e998d51	0.29990628
18	0x3ed35262	0.4127379
19	0x3cb81995	0.022473136
20	0xbfaf429a	-1.36922
21	0x3e498498	0.19679487
22	0xbfbf7f3b	-1.4960703
23	0xbe873e14	-0.2641455
24	0xbe0b139c	-0.13581699
25	0xbfbb9c12	-1.4657004
26	0x3d5f64c9	0.054539476
27	0x3e935aef	0.28780314
28	0x3f6e5ecc	0.931134
29	0x3e4ab920	0.19797182
30	0xbf9324ca	-1.1495602
31	0xbf95688a	-1.1672528
32	0x3d8b8109	0.06811721
33	0x3fa307d4	1.2736764
34	0xbf9c48b3	-1.2209686
35	0xbf024b04	-0.50895715
36	0xbf713f2e	-0.9423703
37	0xbec08445	-0.37600914
38	0xbfdce8cb	-1.7258543
39	0xbfc22182	-1.5166476
40	0xbe1d4a88	-0.15360463
41	0xbfdfc91a	-1.7483246
42	0x3f125b0a	0.57170165
43	0x3e363973	0.17795353
44	0xbf3f2086	-0.74659
45	0xbe5b9ea2	-0.21447232
46	0xbfd057ca	-1.6276791
47	0x3ea928e4	0.3303901

l3.bias f4 [6]
0	0x3f3a76c9	0.728375
1	0x3e57825a	0.21045819
2	0xbecb0f00	-0.39659882
3	0xbee55b4c	-0.44796216
4	0x3f31266a	0.6919924
5	0xbf2b593f	-0.66933054
